2022-02-04 13:27:11,771 INFO     Wrote config.txt file
2022-02-04 13:27:13,816 INFO     GerbilizerRNNConv(
  (conv_blocks): ModuleList(
    (0): Sequential(
      (0): Conv2d(8, 32, kernel_size=(3, 3), stride=(1, 1), padding=same)
      (1): ReLU()
      (2): BatchNorm2d(32, eps=1e-05, momentum=0.1, affine=True, track_running_stats=True)
      (3): MaxPool2d(kernel_size=(4, 1), stride=(4, 1), padding=0, dilation=1, ceil_mode=False)
    )
    (1): Sequential(
      (0): Conv2d(32, 32, kernel_size=(3, 3), stride=(1, 1), padding=same)
      (1): ReLU()
      (2): BatchNorm2d(32, eps=1e-05, momentum=0.1, affine=True, track_running_stats=True)
      (3): MaxPool2d(kernel_size=(2, 1), stride=(2, 1), padding=0, dilation=1, ceil_mode=False)
    )
    (2): Sequential(
      (0): Conv2d(32, 32, kernel_size=(3, 3), stride=(1, 1), padding=same)
      (1): ReLU()
      (2): BatchNorm2d(32, eps=1e-05, momentum=0.1, affine=True, track_running_stats=True)
      (3): MaxPool2d(kernel_size=(2, 1), stride=(2, 1), padding=0, dilation=1, ceil_mode=False)
    )
    (3): Sequential(
      (0): Conv2d(32, 32, kernel_size=(3, 3), stride=(1, 1), padding=same)
      (1): ReLU()
      (2): BatchNorm2d(32, eps=1e-05, momentum=0.1, affine=True, track_running_stats=True)
      (3): MaxPool2d(kernel_size=(2, 1), stride=(2, 1), padding=0, dilation=1, ceil_mode=False)
    )
    (4): Sequential(
      (0): Conv2d(32, 32, kernel_size=(3, 3), stride=(1, 1), padding=same)
      (1): ReLU()
      (2): BatchNorm2d(32, eps=1e-05, momentum=0.1, affine=True, track_running_stats=True)
      (3): MaxPool2d(kernel_size=(2, 1), stride=(2, 1), padding=0, dilation=1, ceil_mode=False)
    )
  )
  (recurrent_layer): GRU(128, 64, num_layers=2, batch_first=True, dropout=0.5, bidirectional=True)
  (ff_layer): Sequential(
    (0): Linear(in_features=128, out_features=128, bias=True)
    (1): Dropout(p=0.5, inplace=False)
    (2): ReLU()
    (3): Linear(in_features=128, out_features=2, bias=True)
    (4): Sigmoid()
  )
)
2022-02-04 13:27:13,817 INFO     Model device: device(type='cuda', index=0)
2022-02-04 13:27:13,821 INFO     Training set:   <dataloaders.VarLenDataset object at 0x000001C52FA1B160>
2022-02-04 13:27:13,821 INFO     Validation set:   <dataloaders.VarLenDataset object at 0x000001C52FA1B340>
2022-02-04 13:27:13,822 INFO     Test set:   <dataloaders.VarLenDataset object at 0x000001C52FA1B460>
…
