2022-01-26 17:30:53,760 INFO     Wrote config.txt file
2022-01-26 17:30:53,870 INFO     GerbilizerDenseNet(
  (pooling): AvgPool1d(kernel_size=(2,), stride=(2,), padding=(0,))
  (f_convs): ModuleList(
    (0): Conv1d(4, 11, kernel_size=(51,), stride=(2,), padding=(25,))
    (1): Conv1d(15, 10, kernel_size=(51,), stride=(2,), padding=(25,))
    (2): Conv1d(25, 10, kernel_size=(51,), stride=(2,), padding=(25,))
    (3): Conv1d(35, 10, kernel_size=(51,), stride=(2,), padding=(25,))
    (4): Conv1d(45, 10, kernel_size=(51,), stride=(2,), padding=(25,))
    (5): Conv1d(55, 10, kernel_size=(51,), stride=(2,), padding=(25,))
    (6): Conv1d(65, 10, kernel_size=(51,), stride=(2,), padding=(25,))
    (7): Conv1d(75, 10, kernel_size=(51,), stride=(2,), padding=(25,))
    (8): Conv1d(85, 10, kernel_size=(49,), stride=(2,), padding=(24,))
    (9): Conv1d(95, 10, kernel_size=(37,), stride=(2,), padding=(18,))
    (10): Conv1d(105, 10, kernel_size=(19,), stride=(2,), padding=(9,))
    (11): Conv1d(115, 10, kernel_size=(9,), stride=(2,), padding=(4,))
  )
  (g_convs): ModuleList(
    (0): Conv1d(4, 11, kernel_size=(51,), stride=(2,), padding=(25,))
    (1): Conv1d(15, 10, kernel_size=(51,), stride=(2,), padding=(25,))
    (2): Conv1d(25, 10, kernel_size=(51,), stride=(2,), padding=(25,))
    (3): Conv1d(35, 10, kernel_size=(51,), stride=(2,), padding=(25,))
    (4): Conv1d(45, 10, kernel_size=(51,), stride=(2,), padding=(25,))
    (5): Conv1d(55, 10, kernel_size=(51,), stride=(2,), padding=(25,))
    (6): Conv1d(65, 10, kernel_size=(51,), stride=(2,), padding=(25,))
    (7): Conv1d(75, 10, kernel_size=(51,), stride=(2,), padding=(25,))
    (8): Conv1d(85, 10, kernel_size=(49,), stride=(2,), padding=(24,))
    (9): Conv1d(95, 10, kernel_size=(37,), stride=(2,), padding=(18,))
    (10): Conv1d(105, 10, kernel_size=(19,), stride=(2,), padding=(9,))
    (11): Conv1d(115, 10, kernel_size=(9,), stride=(2,), padding=(4,))
  )
  (norm_layers): ModuleList(
    (0): Identity()
    (1): Identity()
    (2): Identity()
    (3): Identity()
    (4): Identity()
    (5): Identity()
    (6): Identity()
    (7): Identity()
    (8): Identity()
    (9): Identity()
    (10): Identity()
    (11): Identity()
  )
  (x_coord_readout): Linear(in_features=125, out_features=2, bias=True)
  (y_coord_readout): Linear(in_features=125, out_features=2, bias=True)
)
2022-01-26 17:30:53,870 INFO     Model device: device(type='cuda', index=0)
2022-01-26 17:30:53,870 INFO     Training set:   <dataloaders.GerbilVocalizationDataset object at 0x0000010C3577DBE0>
2022-01-26 17:30:53,870 INFO     Validation set:   <dataloaders.GerbilVocalizationDataset object at 0x0000010C3577DD00>
2022-01-26 17:30:53,870 INFO     Test set:   <dataloaders.GerbilVocalizationDataset object at 0x0000010C3577DDC0>
…
